utils/is_toxic_model/model.tflite (tflite, 101300 bytes, 5 tensors)

sequential_1/embedding_1/embedding_lookup/32236 f4 [2503, 7]
00000000: f88a c03a 73d8 26bd 0c06 21bd 166a 433c
00000010: 03bd d03c 8e32 5b3c dd91 83bc f5bf 03be
00000020: 6371 20be 19fe d23c e969 cf3c ec4e bf3d
00000030: e85b d2be 3262 9c3d 1790 a1bd 0582 5abd
00000040: 0a3d 67bc 927b 7a3d cdd1 86bc 4494 b0bd
00000050: b71f 903d f1f6 b5bc 80c5 d5bd e02e 1ebd
00000060: df3f 043d 3d2a 683c 6f21 c9be 9f86 a1bc
00000070: ff80 6ebd e46c b7bd f040 a0bd 63e6 f5bc
00000080: 8eab ff3c c962 90be 6326 c8bc 9b53 8bbd
00000090: f5d6 02be b9a3 43bd 3d92 b33d 504e da3b
000000a0: d170 febe 1b65 1d3d 3f77 34be 62cb 0f3e
000000b0: 4811 fa3d b37e 743e 676f 543e 80e4 b6be
000000c0: d8a2 263e 7e5b fcbe 2b43 bc3e 373c ef3e
000000d0: 429c 043f db4b f83e ac3c 43be 58f6 e23e
000000e0: efcf 9b3e 4d05 d1be dc13 c9be 0cfd a5be
000000f0: 8d26 a4be 04de bdbe 8324 abbe 3d98 7c3c
00000100: cc23 38be f74a 31be 6622 b2bd 4123 88bd
00000110: 962a bfbe 337d 22bd fc82 e23e 1bb6 03bf
00000120: d68d 00bf d8bb fbbe b04d 02bf 0f22 e5be
00000130: 825f fcbe 1741 15be 81bb 08bd ce87 8d3d
00000140: cc73 093e 634d 9a3d ba20 b1be 472a 453d
00000150: 2438 cb3d 1eec 0dbe 7d7e fabd 963d c4bd
00000160: 2711 27be f6c2 b0bd 3cae c6bd c681 083e
00000170: 634d 1dbe 5f62 5bbe c6a4 e8bd 33ee e5bd
00000180: 68e0 69be 6aef 1cbe 2b66 5e3e 2519 cabe
00000190: c3a8 b0be 887d 93be 2d98 83be fdb7 cebe
000001a0: f55e 85be ad0a f1bd 627a 643d 6461 a23d
000001b0: fb89 9c3d 56e5 7e3d 7e95 8bbe da30 ce3d
000001c0: 779a 2d3e aa9b ccbe 9a46 acbe f30a 89be
000001d0: 8ad9 a9be 8b29 f1be 57b3 8dbe 4724 b83c
000001e0: 7da3 efbd b8cf 5dbd 6a2e c2bd aa3f a5bd
000001f0: 80ec 7dbe 4c75 19bd 12ea 34bf 2e30 143f
00000200: ceda 263f bd12 343f 0cd6 2c3f 2c8f bebe
00000210: 46c7 2f3f 5b50 eb3c ecca 57be 833b 2ebe
00000220: 7b9e f9bd 3f98 21be c37d d5be c58b cebd
00000230: 75da 5d3c c631 33be f1cc abbd 36ad 40bd
00000240: a2c9 02be 7eba aebe 06c5 eabd 90fb c5bd
00000250: 1b84 83bd 7df7 20bc 0efd 103b 9a0d d83b
00000260: bbf7 a5be 4ca1 02ba 26a7 b0bd 9bab 32bc
00000270: df2c 043d ad7d 5c3d e70a a03d e28b 2ebe
00000280: 7e11 ca3d 9def 4fbd baa2 a13c 1c5d e5bc
00000290: 3060 963d ba25 993d ff46 56be 3e65 133b
000002a0: 1315 e93d e945 f6bd e4d4 c5bd 373b 19bd
000002b0: 5111 abbd 010e 8cbb 1bf9 c5bd e6ee bdbe
000002c0: 48b0 603e 1891 9a3e 6a96 b73e 94e2 953e
000002d0: fb78 90be 22d4 b03e 2b59 27bf 6cd2 1d3f
000002e0: c0f2 263f 0095 283f f93e 2c3f 4f02 90be
000002f0: 8ed5 343f 625d eebd a148 a13d eec3 033e
00000300: a4ca fa3d 506a 113e 284b 00be 3b8f 013e
00000310: 0312 4f3d 5523 08be b662 bfbd 4fed 87bd
00000320: ae6a 90bd 0479 22be c092 d1bd 7321 a53d
00000330: be4c afbd 9175 89bd 58d1 c8bd 753d 8ebd
00000340: 37a9 6dbe 2469 78bd c001 90be f911 c23d
00000350: a4ea 503e 4bc4 8a3e c239 863e 58ea 87be
00000360: 11a7 483e 8b66 4bbe 28c2 3e3e 1fb9 113e
00000370: eaea 4d3e 2cee 123e d785 0dbe 6138 163e
00000380: 30e0 f7be e58c d33e 867b e73e fa54 f93e
00000390: ce3d ee3e e801 82be 9aa1 023f a810 ccbe
000003a0: a06b 8f3e 2bf4 c03e 7ff1 b23e aad7 c53e
000003b0: cb89 7dbe ce15 d43e ec3a 883d 4741 4cbd
000003c0: db34 8ebc ed59 02bd f53f b6bc 758e 30be
000003d0: 0186 16bd c64e 5dbe 434e 1c3e 179f 323e
000003e0: 111a 453e 3de4 753e 1d39 96be ef81 843e
000003f0: 0614 073f 6279 15bf 2b4a 23bf 1b95 0fbf
0.0014689853 -0.040733766 -0.039312407 0.011927148 0.025480753 0.013378752 -0.016060764 -0.12866195
-0.15668254 0.025755929 0.025319057 0.09341225 -0.41085744 0.07635917 -0.07888811 -0.053346653
-0.014113674 0.061153002 -0.016457463 -0.086220294 0.07037299 -0.022212477 -0.10438061 -0.038618922
0.032287475 0.014170227 -0.3928332 -0.019717513 -0.05822849 -0.08956316 -0.07824886 -0.030017084
0.031209733 -0.28200367 -0.024432367 -0.06803056 -0.12777312 -0.04776356 0.08768127 0.0066621676
-0.49695447 0.0384265 -0.17623614 0.14042428 0.122103274 0.23876457 0.20745622 -0.35721207
0.16273057 -0.49288553 0.36769995 0.46725628 0.5180093 0.48495373 -0.19066113 0.4432857
0.30432078 -0.40824357 -0.39272964 -0.32419622 -0.32060662 -0.37083447 -0.33426294 0.015417156
-0.17982405 -0.17313753 -0.08697967 -0.06647349 -0.37337178 -0.03967018 0.44240558 -0.51449746
-0.50216424 -0.4916675 -0.5089979 -0.44752547 -0.49291617 -0.14575611 -0.033381943 0.06910668
0.13423079 0.075342916 -0.3459528 0.048136022 0.09922817 -0.13859603 -0.12231157 -0.09582059
-0.16315137 -0.08630936 -0.09701201 0.13330755 -0.15361552 -0.21424244 -0.11359553 -0.112270735
-0.2283951 -0.15325704 0.21718661 -0.3947231 -0.34503755 -0.2880671 -0.25702038 -0.40374747
-0.2604901 -0.11769614 0.055780776 0.07928732 0.07643505 0.06223043 -0.2726249 0.100679114
0.16953455 -0.39962512 -0.33647615 -0.26766166 -0.33173782 -0.47102007 -0.27675888 0.022478236
-0.11701105 -0.054153174 -0.09481509 -0.080687836 -0.24797249 -0.03746538 -0.7066966 0.57886016
0.6517762 0.7034109 0.6751411 -0.37218606 0.6866344 0.02872484 -0.21073502 -0.1701489
-0.12188431 -0.15780734 -0.4169751 -0.10085253 0.013540854 -0.17499456 -0.08388699 -0.047040187
-0.1277223 -0.34126657 -0.114633605 -0.09667122 -0.064216815 -0.009824631 0.0022123489 0.0065934183
-0.32415566 -0.00049831416 -0.08625631 -0.010905172 0.032269355 0.05383079 0.078145795 -0.17045549
0.098666176 -0.050765622 0.019730914 -0.0279985 0.07342565 0.07477899 -0.2092552 0.0022490765
0.11380973 -0.12025053 -0.09659746 -0.037409987 -0.08352912 -0.0042741303 -0.09666654 -0.37096328
0.21942246 0.30188823 0.35856944 0.29274428 -0.282173 0.34536844 -0.65370435 0.61649203
0.6521416 0.65852356 0.6728359 -0.2812676 0.7063836 -0.11638905 0.07875181 0.1286771
0.12245682 0.14200711 -0.1252867 0.12652294 0.050554287 -0.13294728 -0.093449995 -0.0663706
-0.070515975 -0.15866476 -0.102330685 0.080630206 -0.08559559 -0.06711877 -0.09805554 -0.06945316
-0.23209082 -0.060647145 -0.28126335 0.09476084 0.20402008 0.27102885 0.2621594 -0.26545978
0.19594981 -0.19863336 0.18628752 0.14230774 0.20109144 0.14348668 -0.13820587 0.14669944
-0.4841323 0.41318431 0.45211428 0.48697644 0.46531528 -0.2539208 0.51027834 -0.39856458
0.280118 0.37686285 0.34949872 0.386411 -0.24759595 0.41422886 0.066518635 -0.04986694
-0.017359188 -0.03182404 -0.022247294 -0.17241843 -0.03674889 -0.21612081 0.1526423 0.174435
0.19248225 0.24012847 -0.2934045 0.2588038 0.5276493 -0.5838834 -0.63785046 -0.5608689

sequential_1/dense_3/BiasAdd/ReadVariableOp/resource f4 [2]
00000000: ce28 b73e d128 b7be
0.3577332 -0.35773328

sequential_1/dense_2/BiasAdd/ReadVariableOp/resource f4 [7]
00000000: d722 273e 6c2d 333e bef1 6b3e c32c 5c3e
00000010: b212 2e3e 9889 2c3e cab5 443e
0.16321884 0.17497796 0.23041436 0.2150145 0.16999319 0.16849363 0.19209972

sequential_1/dense_2/MatMul f4 [7, 7]
00000000: 9af0 e7bf ddfc 103f 9c86 933f 63ad ca3f
00000010: 16de 8d3f 9f17 d7bd ff5a 593f 9c75 69bf
00000020: 2278 773f 143a 523f 2d40 eb3f 58e9 603f
00000030: 0bb6 02bf 46d4 dd3f f432 e6bf e5a2 223f
00000040: f3ac ad3f ca70 f33f 4321 963f 2a1b d33e
00000050: 5d39 cb3f 7aa8 f73f b68f b5bf 4388 debf
00000060: 7fd9 d4bf 16ff 99bf b18d fbbe 053b d5bf
00000070: 50b7 e6bf 71a9 ee3e b2bb a73f 59f2 933f
00000080: 6aa4 cc3f 5312 8fbe 6738 ec3f 4a0d 713f
00000090: d4ad 98bf 5144 d3bf 124d c1bf 9e3f c5bf
000000a0: 21cc 06bf abc6 bbbf 62ca 47bf b58d a83f
000000b0: 3e75 823f 2510 e93f a200 653f 3e80 e4be
000000c0: a67e 763f
-1.8120301 0.5663584 1.1525455 1.5834163 1.10834 -0.10502552 0.84904474 -0.9119508
0.96667683 0.8211987 1.837896 0.87856054 -0.51059026 1.7330406 -1.79843 0.6352981
1.3568405 1.9018795 1.1728901 0.41231662 1.5876881 1.934829 -1.4184482 -1.7385334
-1.6628875 -1.2030971 -0.4913154 -1.6658636 -1.8024693 0.4661365 1.3104155 1.1558334
1.5987675 -0.27943668 1.8454713 0.941609 -1.1928048 -1.6505224 -1.5101645 -1.541004
-0.52655226 -1.4670004 -0.78043187 1.3168246 1.019203 1.8208052 0.8945409 -0.4462909
0.96287

sequential_1/dense_3/MatMul f4 [2, 7]
00000000: e769 83bf a0e8 58bf 0d62 a0bf 75e9 6e3f
00000010: 8b4a cbbf d6c3 e73f 7dd7 ccbf 59ad eb3f
00000020: ad98 b53f ff24 993f 6838 e4bf 7d4e e03f
00000030: 7b42 e0bf e503 473f
-1.0266694 -0.8472996 -1.2529923 0.9332498 -1.5882124 1.8106639 -1.6003262 1.8412277
1.4187218 1.1964415 -1.7829714 1.7523953 -1.7520288 0.7774032
