utils/is_toxic_model/model.tflite (tflite, 580186 bytes, 5 tensors)

sequential/embedding/embedding_lookup/54898 f4 [14003, 7]
-0.04149479 0.03330062 0.06605132 0.081396565 -0.0022601464 0.08290173 -0.012963514 0.2111636
0.3141676 -0.1956397 -0.20969549 0.279234 0.31920716 0.24445073 0.025269832 0.0023498759
-0.03209399 -0.04316714 0.044743847 0.009144295 0.020463262 -0.042210113 0.07007273 -0.030695727
0.10510174 0.05614192 0.27538216 0.0053806347 1.5172466 1.4547455 -1.6426129 -1.523317
1.666479 1.6231804 1.5390071 -0.3457742 -0.13635431 0.27460054 0.40685824 -0.28249756
0.16050318 -0.362325 -0.015526263 0.04779485 -0.049052235 -0.02983043 0.06702761 0.23298779
0.0012422302 0.64447105 0.5774789 -0.63786143 -0.60435796 0.7035378 0.651726 0.69180906
-0.5423788 -0.4822986 0.51706696 0.5609809 -0.47003886 -0.19616987 -0.5735982 -0.026820311
0.01255014 -0.06310221 0.06378919 0.06655873 0.206589 -0.051800862 1.115809 1.1139723
-1.1865723 -1.1771685 1.2075472 1.2340978 1.2634581 -0.8759328 -0.8250265 0.9155566
0.9624817 -0.87834567 -0.43805933 -1.0003183 -0.073486194 0.0067291707 -0.013319472 0.06051134
0.030121967 0.15275565 -0.0584697 -0.07362604 -0.048788127 -0.0028872965 0.071115345 -0.03148088
0.19932295 -0.027867602 1.2609403 1.2062528 -1.2976061 -1.181887 1.3039575 1.343333
1.2633673 -0.14554434 -0.1447214 0.11288656 0.25700265 -0.19250983 0.13064007 -0.268541
2.0047715 1.9943585 -2.0605676 -1.9974651 2.0573227 2.0773554 2.0208426 0.026429102
0.099015474 -0.023193132 0.014798247 0.016518498 0.162746 -0.0192865 -2.1805966 -1.9912637
2.1505735 2.2320843 -2.0882854 -1.7297845 -2.1876185 1.038636 1.0607929 -1.0665134
-1.0381478 1.160446 1.0863649 1.1234273 0.88186026 0.8893161 -0.9579569 -0.8977966
0.9679786 1.0064687 0.90752536 -0.093024835 0.029604658 0.018173223 0.07112878 -0.023562552
0.19208805 -0.06959884 0.008586006 0.024025144 -0.022859538 0.050780103 0.00078010553 0.121976905
-0.07783832 -0.080607146 -0.060302388 0.09101181 0.19380647 -0.008266259 0.25055984 -0.12871051
-0.05172468 0.0015811444 0.03348757 0.066100985 -0.012610782 0.2397273 -0.10956682 -0.0739277
-0.11439372 0.10634559 0.20702404 -0.09630082 0.040473774 -0.18723345 -0.24704275 -0.2067898
0.21859053 0.3469403 -0.20606697 0.10807177 -0.30040762 -0.04553811 -0.020435197 0.07962939
0.15876868 -0.020039674 0.18121004 -0.08906615 -1.2285386 -1.1339874 1.3368905 1.2980889
-1.2516536 -0.7773448 -1.2802533 0.026972111 0.07390095 -0.112552784 -0.026560351 0.08697572
0.42368633 -0.04149765 -0.15797356 -0.15397602 0.20994413 0.2183354 -0.15385786 -0.047252692
-0.22122912 -0.09466611 -0.057789847 0.14279526 0.11553193 -0.06287211 0.033799145 -0.15247717
0.31727454 0.34359387 -0.26641002 -0.28150424 0.28809538 0.51354325 0.29615226 -0.073033795
-0.042084962 0.06852594 0.062319875 0.028649835 0.21116382 -0.08773484 -1.6029451 -1.5136234
1.679421 1.7319058 -1.6153487 -1.2915156 -1.6077294 -0.17343663 -0.13464086 0.12386569
0.25004515 -0.15878047 0.090837926 -0.21406516 0.14700073 0.121724635 -0.1223215 -0.13411972
00000000: 71f6 29bd 3b66 083d ea45 873d 3eb3 a63d
00000010: f71e 14bb 62c8 a93d eb64 54bc 453b 583e
00000020: 93da a03e c655 48be 6aba 56be c2f7 8e3e
00000030: 1f6f a33e 4b51 7a3e ae02 cf3c 6000 1a3b
00000040: fd74 03bd 07d0 30bd 5345 373d f4d1 153c
00000050: 92a2 a73c 83e4 2cbd 4b82 8f3d 9b75 fbbc
00000060: 953f d73d 12f5 653d e4fe 8c3e 0950 b03b
00000070: 2335 c23f 1a35 ba3f 2441 d2bf 0dfc c2bf
00000080: 2f4f d53f 60c4 cf3f 2ffe c43f 5109 b1be
00000090: 77a0 0bbe 7198 8c3e b94f d03e 85a3 90be
000000a0: f25a 243e aa82 b9be de61 7ebc 88c4 433d
000000b0: ffea 48bd f25e f4bc c645 893d 5a94 6e3e
000000c0: 54d2 a23a 0efc 243f a8d5 133f e34a 23bf
000000d0: 34b7 1abf 0e1b 343f 84d7 263f 661a 313f
000000e0: 56d9 0abf d8ef f6be 805e 043f 729c 0f3f
000000f0: efa8 f0be c1e0 48be 55d7 12bf 45b6 dbbc
00000100: 1a9f 4d3c bb3b 81bd e8a3 823d f24f 883d
00000110: 118c 533e 242d 54bd d4d2 8e3f a596 8e3f
00000120: 9ae1 97bf 75ad 96bf e890 9a3f ebf6 9d3f
00000130: ffb8 a13f 223d 60bf f034 53bf eb61 6a3f
00000140: 3365 763f 43db 60bf 5049 e0be 6e0a 80bf
00000150: ee7f 96bd 6080 dc3b ea39 5abc bdda 773d
00000160: 58c2 f63c fa6b 1c3e ed7d 6fbd 40c9 96bd
00000170: 0fd6 47bd cc38 3dbb eca4 913d 18f2 00bd
00000180: 511b 4c3e 994a e4bc 7e66 a13f 7e66 9a3f
00000190: f517 a6bf 1348 97bf 14e8 a63f 56f2 ab3f
000001a0: 05b6 a13f 9309 15be d931 14be 1231 e73d
000001b0: da95 833e 4c21 45be 83c6 053e 357e 89be
000001c0: 2d4e 0040 2447 ff3f 57e0 03c0 f0ac ffbf
000001d0: 2dab 0340 64f3 0440 7c55 0140 d881 d83c
000001e0: a0c8 ca3d 86ff bdbc 5974 723c cd51 873c
000001f0: e3a6 263e b9fe 9dbc e58e 0bc0 bbe1 febf
00000200: ffa2 0940 78da 0e40 78a6 05c0 9469 ddbf
00000210: f101 0cc0 06f2 843f 10c8 873f 8383 88bf
00000220: 07e2 84bf 7f89 943f 010e 8b3f 77cc 8f3f
00000230: 98c1 613f 38aa 633f aa3c 75bf ffd5 65bf
00000240: 72cd 773f f7d3 803f 9553 683f ce83 bebd
00000250: 7885 f23c 03e0 943c f7ab 913d 4106 c1bc
00000260: bbb2 443e d689 8ebd 52ac 0c3c 61d0 c43c
00000270: ed43 bbbc ccfe 4f3d ff7f 4c3a 07cf f93d
00000280: b269 9fbd 5c15 a5bd a3ff 76bd 6664 ba3d
00000290: 3475 463e 346f 07bc 6149 803e b0cc 03be
000002a0: 42dd 53bd 673e cf3a 432a 093d f45f 873d
000002b0: 749d 4ebc 137b 753e 9264 e0bd 6867 97bd
000002c0: 4147 eabd b7cb d93d 1cfe 533e 5d39 c5bd
000002d0: d4c7 253d 20ba 3fbe c6f8 7cbe b5c0 53be
000002e0: 32d6 5f3e 29a2 b13e 3803 53be bb54 dd3d
000002f0: 07cf 99be 2b86 3abd b767 a7bc bc14 a33d
00000300: 4294 223e 3e2a a4bc 208f 393e 5068 b6bd
00000310: c140 9dbf 8026 91bf 3a1f ab3f c727 a63f
00000320: 2f36 a0bf 1200 47bf 57df a3bf 9ef4 dc3c
00000330: 6259 973d 1382 e6bd 1895 d9bc 5420 b23d
00000340: 6aed d83e 71f9 29bd d2c3 21be e4ab 1dbe
00000350: 98fb 563e 5193 5f3e ea8c 1dbe 0a8c 41bd
00000360: e389 62be 4ee0 c1bd 0cb5 6cbd ec38 123e
00000370: 019c ec3d 18c3 80bd f970 0a3d fa22 1cbe
00000380: cf71 a23e 89eb af3e e566 88be 5321 90be
00000390: 3d81 933e 9277 033f 45a1 973e be92 95bd
000003a0: 4861 2cbd 5457 8c3d 2043 7f3d 0fb3 ea3c
000003b0: 543b 583e 53ae b3bd 4e2d cdbf 69be c1bf
000003c0: 44f7 d63f 17af dd3f bfc3 cebf 6250 a5bf
000003d0: 14ca cdbf 5f99 31be 4bdf 09be 4bad fd3d
000003e0: eb05 803e 5997 22be 3c09 ba3d e633 5bbe
000003f0: 5c87 163e c44a f93d b283 fabd ae56 09be

sequential/dense_1/BiasAdd/ReadVariableOp/resource f4 [2]
-0.011639845 0.011639842
00000000: 0cb5 3ebc 09b5 3e3c

sequential/dense/BiasAdd/ReadVariableOp/resource f4 [7]
0.12421055 -0.1423324 -0.11367955 0.12113184 -0.09408361 0.07538154 -0.051100645
00000000: 1a62 fe3d 96bf 11be d3d0 e8bd f813 f83d
00000010: e8ae c0bd a361 9a3d e94e 51bd

sequential/dense/MatMul f4 [7, 7]
1.4716976 0.7340112 -2.0354865 -0.85411006 2.3143039 0.7925633 1.9157425 -1.9678769
-1.3041093 2.1770203 1.9158721 -2.421208 -0.5278107 -1.6401244 -2.4052012 -1.6136464
1.7954483 1.8764329 -1.7949318 -0.7196687 -1.8872852 2.1049726 1.2243165 -1.8077527
-1.6104536 1.875223 1.0638587 1.8688293 -1.6589061 -0.64765996 1.8945605 1.3434678
-2.4705024 -0.94575006 -2.1905107 1.7562188 1.4777331 -1.4522514 -1.5158261 1.5926144
0.99293244 1.2876787 -0.08508124 -0.35819834 0.5072272 -0.70438474 0.10982419 -0.50646865
0.16378556
00000000: 9660 bc3f 28e8 3b3f 6945 02c0 f5a6 5abf
00000010: 8e1d 1440 6ee5 4a3f 0d37 f53f 64e3 fbbf
00000020: 0eed a6bf 4d54 0b40 4c3b f53f 12f5 1ac0
00000030: 9a1e 07bf 99ef d1bf d1ee 19c0 f78b cebf
00000040: 40d1 e53f f42e f03f 53c0 e5bf 353c 38bf
00000050: 9092 f1bf dfb7 0640 67b6 9c3f 7164 e7bf
00000060: 5823 cebf 4f07 f03f 862c 883f cc35 ef3f
00000070: 0957 d4bf 0bcd 25bf f580 f23f c1f6 ab3f
00000080: b61c 1ec0 ad1c 72bf 5431 0cc0 c7cb e03f
00000090: 5c26 bd3f 60e3 b9bf 9706 c2bf cada cb3f
000000a0: d230 7e3f a8d2 a43f 133f aebd c665 b7be
000000b0: a4d9 013f 8f52 34bf 81eb e03d eea7 01bf
000000c0: 67b7 273e

sequential/dense_1/MatMul f4 [2, 7]
-1.6482562 1.8685877 2.244323 -1.4195151 2.5846145 -2.2768216 -0.79832995 2.2051945
-1.6664716 -1.5462097 2.3158948 -1.6078327 2.097681 0.6646041
00000000: 0ffa d2bf e22d ef3f fda2 0f40 acb2 b5bf
00000010: 536a 2540 72b7 11c0 5a5f 4cbf e821 0d40
00000020: f14e d5bf 33ea c5bf 9f37 1440 76cd cdbf
00000030: 6840 0640 7f23 2a3f
